RollerBall/Assets/RollerBall.onnx (onnx, 75976 bytes, 9 tensors)

network_body.observation_encoder.processors.0.normalizer.running_mean f4 [6]
00000000: 3fb1 92bd d093 8c3e adb1 8dbd 0627 0a3e
00000010: a482 40be ad7a cfbd
-0.07162713 0.27456522 -0.069186546 0.13491449 -0.18799835 -0.101308204

network_body._body_endoder.seq_layers.0.weight f4 [128, 6]
00000000: 7687 aabe 85e6 a63e babf 8c3e d431 eebe
00000010: 4728 0b3f dd0f 0dbe 3738 c7be a49d a63e
00000020: ac48 92bd b4d5 8f39 e504 d4bd f4db 0d3f
00000030: 3444 c2be 6ebd 35bf 2192 2c3e cdad 93bb
00000040: f5da 42be b4e5 a33e ca01 dd3e 3eab 173f
00000050: d046 e3be c3fd 51be 22c8 923c 8451 7cbe
00000060: 9ff3 f9bd 6744 24be faad bcbe 0183 023f
00000070: 82db ae3d 9d35 c03e 2817 c9be 735a 04be
00000080: 42ee cf3d 56ee 16bd 9640 533e 5212 413f
00000090: 72c4 b33d eddb 8bbe f365 413f cf4f febb
000000a0: fa59 d9bd 8c0a 66be 2d43 86bc 651a 6f3f
000000b0: 6ab3 5e3e b276 39bc f996 ca3e 2b6b 5abd
000000c0: 8986 f6be cf5e f23e 7f14 98be ea8b 2d3e
000000d0: 2e6d 183f b1d9 c7be 7c6c 28be 75f5 873e
000000e0: 2ea4 943d 2df1 bdbd 30e3 c83d fc63 6dbd
000000f0: f871 383e 7beb 31be 64ef c3be a632 493f
00000100: 3e65 44be 5442 7b3e 6b16 833e 2268 1abe
00000110: 6b1a 8b3e 0517 473f 48aa b7bd 2398 2d3f
00000120: e42a 47be c8e6 62bf 7149 073e 07da babe
00000130: f7f2 063f acf4 a0bd cddc 50bf d8c7 a73b
00000140: 9837 8b3d 007f 473e b49a 1a3f 1840 883e
00000150: 41ed 583e 0c2e 493e c422 afbd a88f 19bf
00000160: 93ec 91bf 8239 123e 59fd bcbe 6b96 0bbf
00000170: b104 b7bd 5d75 0fbf 7a6c b83d 153a 8c3d
00000180: 747e ddbc 94f3 aabe d41e 3cbf 1e7b 5d3e
00000190: 5488 bd3e 30ab 0abe 8903 54bf ce9b ee3e
000001a0: 5861 fabe 47ce 4ebe ec59 7fbe cbe1 6abe
000001b0: 6461 b5be 02e7 a1be 8e5d 363e 2a05 10bf
000001c0: 8837 a2be 79f1 92be ff55 2abf e38c 693f
000001d0: 2ee4 b03e 21cf 99be 730b a2be 00eb 503f
000001e0: 676a 023d 9dc3 aabe 0daa 25bf 683e 2ebf
000001f0: 04db 973e 62e1 92be 78a2 373f 8775 463e
00000200: 92b7 4cbf b984 b4be 0ac5 633e 7116 583d
00000210: 88fa e2be 0373 ad3e 54bb 27be df23 dd3e
00000220: eb2b 0cbf cb3c 2abf f3ab edbe 8070 033f
00000230: 6f8d 513f 046b c7be 2118 153d ea57 04be
00000240: 72cd 3abd a9a4 0d3f 00c0 64bd 82f2 afbe
00000250: a47b a73e aa82 913e 6630 e63c 8365 31be
00000260: 5b1d 163e 4cdf f23d 4660 9dbe 57a4 b03e
00000270: 7e89 32bf 5fcd a53d 15d7 a1be 6770 913d
00000280: 4a3f 86be a94d 4fbe 2978 0c3f 8a8a 89be
00000290: a7e0 693f dfcb 62bd fae4 bfbe 160b 073f
000002a0: 25f5 13be e1e4 3b3d 2656 a83e bca9 17bf
000002b0: 9232 7f3f c277 a13e d724 f93e aaa9 38be
000002c0: b672 a8be 6214 d13d 4ae1 51be a97b 213e
000002d0: b894 eb3e f356 1a3e dd8d 313e 5114 2dbf
000002e0: c4fe 84bd 5f04 923e 0d35 4dbe 5f21 a3be
000002f0: bebb fabc 5d3e d53e 30c3 11bf ee18 fabe
00000300: 4c10 853d ae8f 1a3e f49d 05bf fa82 1a3f
00000310: 1003 7b3e 6fec 0a3e d1e3 5fbf 7982 42bf
00000320: 19e3 5ebe 14a4 dcbe 98bf 6dbd d5f3 b13e
00000330: b082 73be 8abc fabe 1d08 863d 2191 613e
00000340: 5a8b debe c92f 38bf ec56 0fbf dbfe 06be
00000350: 7691 cebd 22f9 893f 4b15 ac3e 058a c7be
00000360: df97 aebc 53d7 9a3e 3510 523f 8a8f 943e
00000370: 0af3 05bd 5d70 d63e 3e66 15bf ec50 be3e
00000380: 6365 b33d 6c50 243f 0e74 fc3e 5af3 42bf
00000390: 4277 a4be e454 e03e 8e84 3d3f 4d61 343d
000003a0: f9d7 0a3f 85b2 4f3f 74ba a53e be87 f23e
000003b0: 1115 c53e 2573 33bf b359 34bd 728f a3be
000003c0: 1b45 47bc b902 1c3d 9e57 acbe d1ed ed3e
000003d0: 1d0b b3bd cf12 13bf a426 a73d deff 3cbf
000003e0: 5107 af3e 065c 6a3f 1da5 a83d b7e4 5a3d
000003f0: 6979 733e 40d3 d2bc 4bd3 37bf 1c8d 87be
-0.33306473 0.32597747 0.27490026 -0.4652239 0.54358333 -0.13775583 -0.38910076 0.32542145
-0.07142767 0.00027434307 -0.10352496 0.55413747 -0.3794266 -0.7099217 0.16852619 -0.0045068027
-0.19028838 0.32011187 0.43165427 0.5924567 -0.44389963 -0.20506959 0.017917696 -0.2464047
-0.1220467 -0.16041718 -0.36851484 0.50981146 0.085379615 0.37540904 -0.3927548 -0.12925129
0.10152866 -0.03684839 0.20630106 0.7541858 0.08777703 -0.27316228 0.7554619 -0.007760979
-0.10612865 -0.22464961 -0.016389454 0.9339965 0.21748129 -0.011319803 0.39568308 -0.05332486
-0.48149517 0.47337958 -0.29703137 0.16947904 0.59541595 -0.39033273 -0.16447634 0.26554456
0.07257877 -0.09274516 0.098089576 -0.05795668 0.18012226 -0.17374985 -0.38268578 0.7859291
-0.19179246 0.24537021 0.2560304 -0.15078786 0.27168593 0.777695 -0.089680254 0.6781027
-0.19449955 -0.88633394 0.1321161 -0.36494467 0.52714485 -0.078591675 -0.81586915 0.005120259
0.06797713 0.1948204 0.6039231 0.266114 0.21184255 0.19646472 -0.08551553 -0.5998483
-1.1400322 0.1427975 -0.3691204 -0.54526395 -0.08936442 -0.5603846 0.09005065 0.06847016
-0.027037837 -0.3338896 -0.7348454 0.21628997 0.37018073 -0.13541865 -0.82817894 0.46603245
-0.48902392 -0.20195876 -0.24936646 -0.22937696 -0.35425866 -0.31621557 0.17809126 -0.5625788
-0.31682992 -0.28699854 -0.6653747 0.912306 0.34549087 -0.3004084 -0.3164936 0.8160858
0.031839754 -0.33352366 -0.647126 -0.68063974 0.29659283 -0.28687578 0.7173228 0.1938077
-0.79967606 -0.3525751 0.22243133 0.052755777 -0.44331765 0.3387681 -0.16380054 0.4319143
-0.54754514 -0.6649901 -0.4642025 0.51343536 0.81856436 -0.38948834 0.036399964 -0.12924162
-0.045606084 0.55329376 -0.055847168 -0.34364706 0.32711518 0.2842 0.02809925 -0.1732388
0.14659636 0.11858997 -0.30737513 0.3450038 -0.69741046 0.08095812 -0.31609407 0.07101517
-0.2622016 -0.20244469 0.5487085 -0.2686351 0.9135842 -0.055370208 -0.37479383 0.5275129
-0.14448984 0.045872573 0.32878226 -0.5924337 0.9968654 0.3153668 0.4866092 -0.18033472
-0.32900017 0.10208966 -0.20496097 0.15769829 0.460119 0.15072231 0.17339273 -0.67609125
-0.06493905 0.2851896 -0.20039769 -0.31861398 -0.0306071 0.41649142 -0.5693846 -0.48847145
0.06497249 0.15093872 -0.5219414 0.60356104 0.24512887 0.13566755 -0.87456995 -0.75980335
-0.21766318 -0.43093932 -0.058044046 0.34756342 -0.23780322 -0.4897197 0.06544516 0.22028019
-0.43465692 -0.71947914 -0.5599201 -0.13183157 -0.10086338 1.0779154 0.33609995 -0.38972488
-0.021312652 0.30242404 0.8205598 0.29015762 -0.032702483 0.418826 -0.58359134 0.37171113
0.08759572 0.64185214 0.49307293 -0.76152575 -0.32122236 0.43814766 0.7403039 0.044038106
0.542358 0.81131774 0.32368815 0.47369188 0.38492635 -0.7009757 -0.044030856 -0.31945378
-0.012162472 0.038088534 -0.33660597 0.46470502 -0.08742354 -0.57450575 0.08161667 -0.7382792
0.3418527 0.91546667 0.08234618 0.053440776 0.23776783 -0.025735497 -0.7180678 -0.26474845

network_body._body_endoder.seq_layers.0.bias f4 [128]
00000000: 3e45 323d ac9b e43c 9987 173d 326e e23d
00000010: e585 c93c 9e5b 003d e808 6fbd b249 873d
00000020: 9184 af3c 2deb c6bc 9398 573d 93b7 363d
00000030: a4ba 0abd 3f19 8c3b 45d6 893c d44c 34bd
00000040: 6111 9a3c 98ec 463b 5f79 50bb 0856 a6b9
00000050: 24f2 89bc 537d d23d 5515 bf3a c3de b33d
00000060: 3726 2c3d 8498 e83c d33d 0e3c 3063 eb3c
00000070: 3e53 383d c97a ad3d 5891 513d 92b7 c23c
00000080: 9c21 973d d264 baba 5de7 fabb 708b 4ebb
00000090: 0aaf 6a3d c432 b2bc d7c1 4e3d 6288 d53d
000000a0: d068 003c 890f a13d 6343 c53d f18f a43d
000000b0: 693f f33c baee 8e3c 36d9 65bd 73d4 4abd
000000c0: 072d 43bd 2d32 9cbc 701f c5bc 4783 25bd
000000d0: 2935 06bd b013 bdbc c1a5 783d c00f 3b3d
000000e0: cbb2 2fbd fd53 e23b a859 673d cc06 ab3d
000000f0: 7374 d23d b82a 54bd 490c 103d 6948 2e3d
00000100: da1e 8cbc 3397 203d c77d b93d 0cf8 723d
00000110: 3865 4a3d 4369 ab3d d8af 313d e275 8f3c
00000120: d5d4 cf3d 5bc7 263d 2b0e f9bd 0025 823b
00000130: 8e6f bdbc 413e 4d3d 15bc dc3c 367f 263c
00000140: 7282 153b 93b8 c83d 116f 7ebc 91e2 a53d
00000150: ab11 433d ee7b 623d 44e9 5b3d 29bc 1abc
00000160: 1e19 de3c 03f9 5b3b 411b fe3c de3f ce3b
00000170: 8187 493c 2dfc d23c 445d 093d 874c 673c
00000180: fa6a a83c bc72 a53d d3cd f63b 5df6 f13c
00000190: a711 333d 4c21 bfba a93f e63c 8a42 503d
000001a0: 7a67 1ebd df70 003e 656c 9b3d 5745 6e3d
000001b0: 2c4b 0bbd 9c78 243e 3577 233d 613b 2ebd
000001c0: 8ea0 e03b 5fe0 183d 73a4 37bb 6645 d83c
000001d0: bee2 b83b 648e 693d d557 aa3c cfe8 11bd
000001e0: 4668 b83d 8ba9 443d a4d5 333c b1f9 203d
000001f0: 184f d03c 81f7 ff3c 4957 08ba 77e2 7d3d
0.043523066 0.027906261 0.03699455 0.11056174 0.024599979 0.031337373 -0.058358103 0.06605853
0.021425517 -0.024282062 0.05263574 0.044608664 -0.0338694 0.0042754705 0.016825804 -0.04401858
0.018807115 0.0030353423 -0.0031810624 -0.00031726086 -0.016839094 0.1027781 0.0014578501 0.08782723
0.042028632 0.028393038 0.008681732 0.02873382 0.04500126 0.08470685 0.051164 0.023769174
0.07379457 -0.0014220721 -0.007656975 -0.0031516217 0.057295837 -0.021752723 0.05047783 0.104264036
0.007837489 0.07864291 0.096319936 0.08035267 0.029693322 0.017447818 -0.05611535 -0.049519014
-0.047650363 -0.019066894 -0.024062842 -0.0404084 -0.03276554 -0.023080677 0.06070495 0.045669317
-0.04289512 0.006906985 0.056481987 0.08350906 0.10276117 -0.051798552 0.035167966 0.042549524
-0.017104555 0.039206695 0.09057193 0.059318587 0.049412936 0.083696865 0.04338059 0.017512266
0.10148016 0.040717464 -0.121609055 0.003971696 -0.023124482 0.050108198 0.026945153 0.010162165
0.0022813347 0.0980083 -0.01552941 0.08099855 0.04762427 0.05529397 0.053689256 -0.009444275
0.027111586 0.003356517 0.031018855 0.0062942347 0.012300373 0.025755012 0.03353621 0.014117367
0.020558823 0.080785245 0.0075318604 0.02953642 0.043718006 -0.0014582067 0.028106527 0.050844707
-0.0386729 0.12543057 0.07589034 0.058171596 -0.034007236 0.16061634 0.039908607 -0.042537097
0.006855077 0.037323352 -0.0028021603 0.02640028 0.005642264 0.05702056 0.020793835 -0.035622414
0.090042636 0.04801325 0.010976229 0.039300624 0.02542834 0.031245949 -0.0005200995 0.06198355

network_body._body_endoder.seq_layers.2.weight f4 [128, 128]
00000000: cc5f 02bd 9522 b73d fd23 4a3e 3695 91bd
00000010: 7262 543e 8397 183e 8b82 7dbd 104b abbb
00000020: 9687 583c 4cd5 03bd 8813 57bd b2e3 4f3d
00000030: a0e1 1c3d 8c20 283e 6012 fdbd ec66 a6bd
00000040: dae7 d23b bcb7 9ebd 71c4 d13d be0e 103a
00000050: 48a2 4abe 113c a33c 98c7 65bd fe56 d9bd
00000060: b4bc 71bd 119b fc3d f558 c43d 848d c8bc
00000070: c7a0 40be d14b a63d 2519 11be 5b0c cfbc
00000080: 319b b43d 5d6d f5bd 4476 4bbd acd2 ec3d
00000090: 8f8d 52bd c4b1 42be e2eb 043d 188f 123e
000000a0: e3ad 18be 455f 653e eeed 46be 8164 ea3d
000000b0: 2901 b6bb 848a 263e b174 0d3e 5594 a23d
000000c0: 053a 813c d177 ca3d 212b fd3b fe89 20bd
000000d0: ac60 b63c 3ce0 f83d 45c3 d4bc 0b96 bb3d
000000e0: 146f 2abd e5f3 873b afe0 17be 6061 c23c
000000f0: 5704 173e 2596 15be 47cc ecbc 5a66 ac3c
00000100: cfc7 3cbd 357b 013d c1f4 51be bf92 acbc
00000110: 58b4 913d 0c60 0b3d 93a0 55bd 8402 3f3e
00000120: 387a 03be c0ec c63d 05cf 21be aa6b b23c
00000130: f9b3 3a3c 7122 6cbd 75c5 8fbd 056e eabd
00000140: 414f b43b c34c 0cbe 6e2e a1bd b239 2a3e
00000150: 6b4d 94bd c3e2 41be cfbc 9fbd 97c2 143e
00000160: aaa9 dcbd c72c 4ebd 72c8 8ebe caf1 88bd
00000170: 81a0 8fbd 53f2 f33d 6cb0 123e bcda 863d
00000180: 60d4 463e 69b8 e3bc f86d 08bd ca03 9a3d
00000190: 7a5a e7bd c079 383e 599f f4bd feac 423e
000001a0: b0a6 9fbd f6b3 7ebd 5ad3 de3d 2536 acbc
000001b0: 139b 6d3d 0d4f 4cbd f1b5 d63d d7fd 04be
000001c0: 456b 49be 3ae7 0f3d 1f22 bfbc db00 993d
000001d0: e7e1 10be e330 12be 839e 4bbd f63c 0c3d
000001e0: daa0 38bd b40a 17bd e3ad 9e3d a69a 543d
000001f0: c5a0 27bd 9485 653d d2d4 f03d b4bf 043e
00000200: 6293 f1b8 3325 303c cad0 3bbd c717 86bd
00000210: cfb2 adbd 4405 fd3d 9a4d 9bbd a15d 6f3d
00000220: 70f3 e23c cbdc 9c3c f07a 8abe a4ce 21be
00000230: ba43 213d 4183 7f3e f178 0f3e 1e13 11bd
00000240: 03e2 88bc a2cd 7ebd ba72 2f3e 7e66 c13d
00000250: 1f7d c23d bc3f bdbd e1a4 75bd 1e28 12bd
00000260: 2f8e 0d3d 670f ffbd 1141 f53c 28dd 3abe
00000270: dffa 8e3c aeaa 3bbe 8fcc e8bd f520 433c
00000280: 3cf3 5b3d 4528 043e e15b 50b6 4cd5 2d3e
00000290: 9e89 8c3b f36d 0cbd f4fd 6aba 95a5 d73d
000002a0: 48dc 623c ef0b e0bc de6d 05bd 0734 47bd
000002b0: 78e9 8b3e c05f 74bc 6e24 793d 0bf4 243e
000002c0: a297 8e3d 4e66 4bbd f761 903d ca4a 1d3e
000002d0: 7949 bb3c ad27 40be 7a5a 9dbc 9af2 363b
000002e0: 21d7 2c3d ffb2 a0bc 5499 a2bd 5782 e83d
000002f0: 3713 ce3c 0848 b3bb 824d 9d3d bbb8 9ebd
00000300: 94bb 3f3b fea3 bdbc 7bdc 053e d9ca 3d3c
00000310: ccb3 71bc 9990 01bc be1d 823d 15ad 093e
00000320: c1ce 583e cda1 25bd d046 0bbd e4e6 443d
00000330: f3d3 db3d b5c5 883d cb9e 583e 1f24 2dbd
00000340: 217f 0c3e 6df5 663e b256 253e f73b 94bb
00000350: f01b e9bd 5495 40be a97d 663d 18a4 7f3c
00000360: 61cb d73d 89a8 0e3e 2139 d1bc 6d0c 1d3d
00000370: da78 33bd 8070 a23d 849c 1b3d 0326 073d
00000380: 0927 3cbe 80fc ed3d af4e 513d 2af7 9b3d
00000390: 3a7d d13d e8b6 26be deda 9b3c 577e 59bd
000003a0: e930 16bd 228f 42bd fb1b 24bd f022 9abd
000003b0: cc38 79bd 23bd debc 5647 95bc 266f 7dbd
000003c0: a866 ad3d 7bbd 1f3e 79e9 8e3d f33b 97bd
000003d0: cddf c13b 15dd c53c 8b30 ce3d bef1 9d3d
000003e0: 2233 b8bd 52f2 9abd a029 62bd 2481 f5bd
000003f0: 9679 0ebe 04e0 233b 7fdd 833d 40d3 ab3d
-0.03182964 0.08942143 0.19740291 -0.07108538 0.20740679 0.14901547 -0.061892074 -0.005227454
0.01321592 -0.032185838 -0.05250886 0.050754257 0.03830111 0.16418666 -0.123570204 -0.081250995
0.0064363303 -0.07749888 0.10242546 0.0005495361 -0.19788468 0.019926103 -0.05609855 -0.106122956
-0.059017852 0.12334264 0.0958728 -0.024481542 -0.18811332 0.081199296 -0.14169748 -0.025274446
0.08818663 -0.1198375 -0.049673334 0.1156362 -0.051404532 -0.19013125 0.032451518 0.14312398
-0.14910083 0.22399624 -0.194267 0.11444951 -0.0055543375 0.16263777 0.13814045 0.07938448
0.015774736 0.098861344 0.0077260886 -0.0391941 0.022262894 0.12152144 -0.025972018 0.09159478
-0.04160984 0.0041489475 -0.14831804 0.023728073 0.1474775 -0.14608057 -0.028906 0.021044899
-0.04608899 0.03161164 -0.20503522 -0.021066068 0.07114476 0.034027144 -0.05215509 0.18653303
-0.12839592 0.09713125 -0.15801628 0.021779854 0.011395448 -0.057650033 -0.07020084 -0.11446766
0.005502612 -0.13701157 -0.07870184 0.16623572 -0.07241329 -0.18934159 -0.07799684 0.14527355
-0.10774548 -0.05033567 -0.27887303 -0.066867426 -0.070130356 0.11911454 0.14325112 0.06584689
0.19416952 -0.027797895 -0.033308 0.07520254 -0.11296554 0.18015194 -0.11944456 0.19011304
-0.07795465 -0.062183343 0.10880156 -0.021021912 0.05800922 -0.049880076 0.10483921 -0.12987457
-0.19669826 0.035132624 -0.0233317 0.07470866 -0.14148675 -0.14276461 -0.049711715 0.034237824
-0.045075275 -0.03687544 0.0774801 0.051905297 -0.040924806 0.056035593 0.11759342 0.12963754
-0.00011519228 0.0107510565 -0.045853414 -0.06547504 -0.08481371 0.1235452 -0.07583161 0.0584389
0.02770397 0.019148251 -0.2704692 -0.15801483 0.03937123 0.24952413 0.14010979 -0.035418622
-0.016709333 -0.062207825 0.17133608 0.09443377 0.09496521 -0.09240672 -0.059971694 -0.03568279
0.034559425 -0.1245411 0.029938253 -0.18248427 0.017453609 -0.18326828 -0.113671415 0.011909713
0.053698763 0.12905987 -3.1047896e-06 0.16975898 0.004288866 -0.034284543 -0.00089642336 0.10529629
0.013846464 -0.02734944 -0.03257548 -0.0486336 0.2732656 -0.014915407 0.060825758 0.1610872
0.069625154 -0.049658112 0.07049935 0.15360561 0.022862183 -0.18765135 -0.019208182 0.0027915598
0.04219735 -0.019616602 -0.07939401 0.11352985 0.025155647 -0.0054712333 0.07680799 -0.07750078
0.0029256092 -0.023149487 0.13072388 0.011584007 -0.01475234 -0.00790801 0.06353329 0.13444932
0.2117262 -0.04043751 -0.03400308 0.048071757 0.107337855 0.066783346 0.21154325 -0.042270776
0.13720371 0.2255456 0.16146353 -0.00452375 -0.11382282 -0.18806964 0.056272183 0.015603088
0.10536838 0.13931479 -0.025539936 0.03834193 -0.043816425 0.07931614 0.03799106 0.032995235
-0.18374266 0.11620426 0.05110043 0.07615502 0.10228963 -0.1628071 0.019025262 -0.053099003
-0.036667738 -0.047499783 -0.040065747 -0.07526195 -0.06084518 -0.027189797 -0.018222492 -0.061873578
0.08466846 0.15599625 0.06978125 -0.07384481 0.0059165717 0.024153272 0.100678526 0.07712124
-0.08994128 -0.0756575 -0.055215478 -0.11987522 -0.13913569 0.002500535 0.064387314 0.08389902

network_body._body_endoder.seq_layers.2.bias f4 [128]
00000000: d97a 373c c258 a23c e0a0 b43d 4cdd da3d
00000010: 3c57 c33d d6ff bdbc 4316 dc3d 4d3d 753d
00000020: 23db ab3d 8f27 af3c a9e9 6a3d 09b8 6e3d
00000030: 9200 703d 169f 4e3c b00f 323d ae29 863c
00000040: 0cbf bdbb 8ca2 873c 20ef 773c 6631 253d
00000050: 6f64 453d 44e9 403d 1f52 f33b 1b8f 8b3d
00000060: 145f 2c3c c0a8 273d 1b06 ae3d fbec ea3c
00000070: cbf1 923d 3aa3 c23d b5a4 f83c ce2c 7c3d
00000080: 405b 903d 98e1 20bc 3bc8 113d 937d 4a3d
00000090: 80c7 8f3b 2179 f1bc 84ff e03d 5626 823d
000000a0: 4f53 8a3d c610 893d 1e48 443d 5bea dfbc
000000b0: ef49 023d 9549 b53c 910e dabb 2c4e 6d3d
000000c0: 42c8 853d a850 dc3c 9486 043d 9c7d dd3d
000000d0: aee6 7d3c a18c 563c 76d5 6e3d 1d6b 2a3d
000000e0: 5084 263d 17a7 fcbb 8649 003c bae7 013d
000000f0: dac8 603b 415c bd3c 6c64 1ebc 4f4e 073e
00000100: 1c30 8bbc baa4 2fbd a7f2 9e3b 1dfc c33d
00000110: 6fc3 113d a446 5c3d ac18 8bba 874c c53c
00000120: a7bc f43d e21c 153d 88a7 9f3d f7d2 b33d
00000130: b85c 9b3c f1f5 8f3d 7c75 0b3c c123 85ba
00000140: f358 7f3c 4269 873d 6882 083e 09fd 3bbb
00000150: c236 b43d 2bcb 663d 7b4b 0d3c dd48 173c
00000160: 883a cd3d 84e1 c23c 58ed 453d 5234 a83d
00000170: 9e91 083d 5097 7dbc 1f83 6c3d f263 873c
00000180: 669c 623d d98d 7f3d cc34 7d3c 5823 e03b
00000190: decf 0c3c 1909 09bd 09d2 7a3d 70b8 223d
000001a0: 42a4 a73d 3995 c33c 9b54 483d 2e17 cf3a
000001b0: 229d 94bc b087 323b 60e3 0d3d 4147 82bc
000001c0: fee2 8e3d c7c8 20bc 0aca aebb fb1c 9ebb
000001d0: e039 183c 1781 9dbb f8e6 d33c 34e9 2c3c
000001e0: c8fd 0a3c b35a a43d 6cdf 003d 420a 6c3d
000001f0: 6c51 c33b ef9a 7c3d ebdb 0f3d c107 533d
0.011198723 0.019817714 0.08819747 0.1068674 0.09538123 -0.023193281 0.107464336 0.059872914
0.083914064 0.021381168 0.057351742 0.05828098 0.058594294 0.012611171 0.043471992 0.016377296
-0.005790597 0.016557 0.015132695 0.040330313 0.048191484 0.04709746 0.007425561 0.068144046
0.010520715 0.040932417 0.08497258 0.028677454 0.071750246 0.09503789 0.030351976 0.061566167
0.070486546 -0.009819411 0.035591345 0.049436163 0.004387796 -0.029476704 0.10986236 0.06354968
0.06754171 0.066926524 0.04792034 -0.02733343 0.03180879 0.022129813 -0.0066545685 0.05793588
0.06532337 0.026893929 0.032354906 0.10814974 0.015496893 0.013095052 0.05830904 0.041606057
0.040653527 -0.0077103483 0.007830029 0.031715132 0.0034299404 0.02311528 -0.009667497 0.13213466
-0.016990714 -0.042881705 0.0048507038 0.09569571 0.03558677 0.053778306 -0.0010612211 0.024084343
0.11950045 0.036404498 0.07795626 0.08780473 0.01896511 0.070293315 0.008511897 -0.001015775
0.015585172 0.06611873 0.13330996 -0.0028684756 0.08799507 0.0563461 0.008623953 0.009233681
0.100209296 0.023789175 0.04832205 0.08213104 0.033341996 -0.01547797 0.057742234 0.01652715
0.055324934 0.062391136 0.015454482 0.006840151 0.008594481 -0.03345594 0.06123546 0.039726675
0.081856266 0.023874866 0.04890881 0.0015799755 -0.018141333 0.002724152 0.03464067 -0.015903117
0.06976889 -0.009813494 -0.0053341435 -0.004825232 0.009291142 -0.0048066485 0.02586697 0.010553647
0.008483358 0.08025112 0.03146307 0.05762697 0.005960634 0.061671194 0.03512184 0.051521067

action_model._continuous_distribution.log_sigma f4 [1, 2]
00000000: 4219 afbd 3b3c d0bd
-0.085497394 -0.10167738

action_model._continuous_distribution.mu.weight f4 [2, 128]
00000000: b478 3f3c 07f3 55bd cc9b 8f3d 4a33 0c3e
00000010: 326e eb3d 8ab5 513c 3c2a 903d 51e3 d53d
00000020: 28bd 063e 52d3 3d3d aa43 66bd f918 b6bd
00000030: 48ea 0a3e f674 7abc 77d5 af3d 43f5 9fbd
00000040: a4e0 84bd e851 1abd 7836 4cbd ca6c f1bd
00000050: 3b70 2fbd 8b2d 533d a546 abbb cf2a 2fbd
00000060: ecac 313c a321 15bd 9257 0ebc 11a8 273d
00000070: 251f 10bc 65bd 04be 7103 863d 834a 6fbd
00000080: 4ea0 d33d 5872 9fbc 6e7f 963d dfb7 aabd
00000090: 7d7b 61bd ce67 d8bc fc2a df3d 2b64 b23d
000000a0: 93f1 b73d 60d8 bfbc 5986 7d3d ed81 243c
000000b0: 28da 223d 442e 7e3d 0fe8 bebc 53bd 5abd
000000c0: c687 a6bd 8d87 d2bc 3eac 803d 14e4 8d3d
000000d0: 2c10 32bd 4bfa 2ebd e890 7639 eaea 33bb
000000e0: 90e6 bb3d 436d 60bd a5cc 6a3c 85aa e83c
000000f0: 4384 01bd 0dd5 4e3d 1408 64bd d34d 313e
00000100: d380 ddbc 1720 45bc 4346 8ebd 2950 8d3d
00000110: 9ea4 caba f13f 0ebc d741 61bd d7b4 a23d
00000120: a7eb aa3d 77fd 41bd 427a c93d 97eb a73d
00000130: 8809 833d 9306 083d 7c72 91bd 4d63 c6bc
00000140: f6d1 793d 172e a33c 7d41 df3d 295d e0bc
00000150: 099e 033e 8aa7 74bb b7c6 543c d5d4 7cbd
00000160: 9bc0 273e 80e5 503d 7085 ab3d f274 033e
00000170: a61e 9bbc ee64 8bbd 7546 b13d 0a33 26bd
00000180: f761 68bd 4269 a33c 35bf 7dbd 19bd 993b
00000190: 00e0 c5bc 461f 1fbd c074 ed3d 18dc dfbd
000001a0: 9017 163e 2366 44bd e409 6abd ebbe 8fbd
000001b0: a61b 58bd fa20 e9bc 0944 723d 25a0 17bd
000001c0: 3de9 b0bd 4ed9 51bd f25d 31bd 870e 32bd
000001d0: 6715 0d3c 4fd5 72bd dfcd babd 8656 933c
000001e0: c186 17bd 2894 d33d 184d 35bd d512 c53d
000001f0: 464e 81bd dd98 cabd 9719 ca3d e02f 90bd
00000200: 137c babd 8d82 2c3c f261 983d 8330 a33c
00000210: a04c 713d 05bb 82bd 3fcd 503d 628b 7fbd
00000220: fa5b 9a3b c15e cdbc 2252 a63d f837 fd3c
00000230: 304a bc3c 4f3f 93bd bba5 a6bc a480 c1bc
00000240: cb48 90bc c17f b2bd c23a 5e3b 5859 12bd
00000250: 3fbb 433d f520 d2bd 3702 c2bd bada 463d
00000260: 92ae a5bd ec87 9e3d a060 8d3d 26e5 97bd
00000270: 0785 b33d 116b b63c d6d1 90bd 77aa b23d
00000280: 6242 fd3c f7e8 5cbd 4007 193b 12fd 473d
00000290: 52e4 7abd 094b c63b ade4 f83c 1115 d9bd
000002a0: 9801 213d e163 943d 0388 bb3c fac5 22bd
000002b0: 01fe 8dbd 18a5 ff3b 33fb 2e3d 81ec 883d
000002c0: 9d05 c33d 40f5 443d 902e 0ebd 4730 063e
000002d0: 590e 7bbd f0d0 ffba 9d2c 4e3d c693 843d
000002e0: ec5e 90bd f37e 5ebc 7380 b5bd 561a 92bd
000002f0: 5c7c 79bd 15a1 a9bd 7eac ea3b 7e68 b43b
00000300: e300 21bd 94ed 30bd 6c54 cbba e235 953d
00000310: 7aa0 9d3d 9683 f7bd 528b bfbc d014 5fbd
00000320: f8e0 933d 91d1 533d 972f 583c cf7e 983d
00000330: c49a 963c f273 a83d 32e5 c4bc 0c7e 3cbd
00000340: 6b64 65bc 1e90 ddbd e75f 823d a408 72bd
00000350: a805 0f3d aca5 cfbd 4f5f 8fbd ff13 cebb
00000360: 3d36 823c 5ecc 9cbd 54c8 92bb 325d bcbb
00000370: 6f08 8d3d aad0 d73b 09e6 c43c 0e57 e9bd
00000380: 997c 763d 9558 13be b29c 0c3d bcd3 d5bd
00000390: 48b9 bfbd 8959 96bc 0664 353d c2f1 86bd
000003a0: 4e10 2fbd c9a1 2a3c b311 733d 350a 5bbd
000003b0: fbbd 34bd 9754 79bd 4a5a 84bd ed91 5fbd
000003c0: dc52 743d 4a17 053c 905f ca3b 7c7c 31bd
000003d0: 9e33 c2bd 2648 cabc 0e05 953c 0c4c a7bd
000003e0: 06a0 323c 2151 09bd bcc2 133d 3061 69bd
000003f0: b1a2 b03b bf58 48bb 4736 9dbd 2bd9 543d
0.011686493 -0.052233722 0.07012138 0.1369144 0.114956275 0.01279963 0.070393056 0.10443748
0.13158095 0.04634411 -0.056216873 -0.08891482 0.13565934 -0.015286675 0.08585637 -0.07810452
-0.06488159 -0.037675768 -0.049856633 -0.11788328 -0.04283164 0.051557105 -0.0052269273 -0.042765435
0.01084445 -0.03640903 -0.008687871 0.040931765 -0.008796488 -0.12962873 0.06543625 -0.05842067
0.1033331 -0.019463703 0.07348524 -0.08335852 -0.05504941 -0.026416685 0.108968705 0.08710512
0.089816235 -0.023418605 0.061895702 0.010040742 0.03975883 0.06205584 -0.023304014 -0.05340321
-0.081313655 -0.025699401 0.062828526 0.06928268 -0.043472454 -0.042719167 0.0002351437 -0.0027453252
0.09174836 -0.0547917 0.014331018 0.028401623 -0.031620275 0.05049615 -0.055671766 0.17314844
-0.027038967 -0.012031577 -0.06946995 0.06900055 -0.0015460437 -0.008682237 -0.05499443 0.07944649
0.08345728 -0.047360864 0.09837772 0.08199232 0.06398302 0.033209395 -0.07101914 -0.024217272
0.06099125 0.019919438 0.10901163 -0.027388172 0.12853254 -0.0037331306 0.01298683 -0.06172641
0.16382067 0.05100012 0.083750606 0.1283758 -0.018935513 -0.0680636 0.08656017 -0.04057602
-0.05673405 0.019947652 -0.061949927 0.0046917317 -0.024154663 -0.038848184 0.11594534 -0.109306514
0.14657426 -0.047948968 -0.05713834 -0.070188366 -0.052760743 -0.028458107 0.059146915 -0.03701796
-0.08638237 -0.05123263 -0.043302484 -0.043470886 0.00861106 -0.05928546 -0.09121298 0.017985594
-0.036993746 0.10330993 -0.044262975 0.096227325 -0.063137576 -0.098924376 0.09868162 -0.070403814
-0.091056965 0.010529173 0.074405566 0.019920593 0.058910966 -0.063833274 0.050976988 -0.062388785
0.0047106715 -0.025069596 0.08121134 0.030910477 0.022984594 -0.071898095 -0.020342698 -0.023620911
-0.017612835 -0.087157734 0.0033909534 -0.035729736 0.047785994 -0.10260192 -0.09473079 0.048548438
-0.08089937 0.07740769 0.069031954 -0.074167535 0.08765607 0.02226785 -0.07071273 0.0872392
0.030915443 -0.05393311 0.0023350269 0.04882533 -0.0612529 0.0060514254 0.030382479 -0.10599721
0.03930816 0.07245613 0.022892004 -0.039739586 -0.06933213 0.007801663 0.04272003 0.066857345
0.09522555 0.04808545 -0.034712374 0.13104354 -0.06129298 -0.0019517224 0.050335515 0.06473498
-0.07049355 -0.013580072 -0.0886239 -0.071339294 -0.060909614 -0.08282677 0.007161676 0.0055056205
-0.039307486 -0.043195322 -0.001551283 0.07285668 0.07696624 -0.12085645 -0.023381863 -0.054463208
0.07220644 0.05171353 0.01319494 0.07446062 0.018384345 0.0822524 -0.02403507 -0.046018645
-0.014000992 -0.10818504 0.06365948 -0.05909027 0.034917504 -0.10139021 -0.070006005 -0.006289005
0.015895003 -0.076561674 -0.0044794474 -0.0057484144 0.06886374 0.006586154 0.02403547 -0.113935575
0.06017742 -0.1438926 0.034329124 -0.10440776 -0.093615115 -0.01835324 0.044284843 -0.065890804
-0.04274016 0.010414549 0.05934305 -0.05347653 -0.044126492 -0.060871687 -0.06462534 -0.054582525
0.059649333 0.008123228 0.0061759427 -0.04333161 -0.094825014 -0.024692606 0.018190887 -0.08168802
0.01090241 -0.033524636 0.036074385 -0.05697745 0.005390488 -0.0030570475 -0.07676368 0.05196492

action_model._continuous_distribution.mu.bias f4 [2]
00000000: 4274 cb3b c043 f03c
0.0062089274 0.02932918

onnx::Div_51 f4 [6]
00000000: 8e17 1a40 df97 1740 e7a6 0b40 184a 0a40
00000010: b95a 1440 8e41 0440
2.4076877 2.3686445 2.182062 2.1607723 2.3180373 2.0665011
